lstm_3_model.pt (torch, 243182 bytes, 7 tensors)

embedding.weight f4 [36, 36]
00000000: f07a 443d 88c3 41bf 3bc1 91bf 445f c43f
00000010: f34e 15c0 7724 003e 0e31 1dbf 57a1 ca3e
00000020: b8ad 2bbe 7cd5 a9be 441c 1ebf 0c16 09bf
00000030: 8329 2cbe 0f3f b63f 5df9 0040 110a 27c0
00000040: 9aa8 aebe 8fe6 7bbf 6284 643e ebf1 37c0
00000050: 98d7 eb3e 6509 9dbf 9b4c c33f 9832 0140
00000060: 578b 303f ee78 253e 7e52 5640 fee3 63bf
00000070: 3025 7fbf 98a6 d03e 804f 0140 678a b4bf
00000080: 7b8e dbbf b305 6b3f 2986 603c 232f d1bf
00000090: 3fea cfbd 72d7 1ac0 5045 ec3f 5cf4 babf
000000a0: e785 e73f cdda 5c3f c1a5 ffbe 362f f13e
000000b0: 0132 c43e 7ec6 afbf 6313 fe3e 33cf 0e3f
000000c0: 7ea5 b1bf 9293 883e 80f1 91bf edc1 883f
000000d0: 35c4 3140 37a7 0ec0 b488 3340 9b31 eabf
000000e0: 860c 98bf 13a8 a4bf 2c2f 06c0 0d34 613f
000000f0: f030 8f3f 6591 bebe 0086 bf3d 5a4e 0040
00000100: f21f 32bf b6cf 9bbf 205b d43f 0657 1ac0
00000110: 70bb a03f 39ed d2bf 30c4 5dba dda2 c6bf
00000120: 09e5 393f 6825 c9be e9b4 1740 29bf c03f
00000130: e6ed 2540 77e5 963f 799e 49be e65a 42bf
00000140: e49e 843f 6b6d 9abf 38a6 babf 6683 633f
00000150: daf6 813f 061a 973f 1a0b 29be 8399 b1be
00000160: 1804 03c0 df79 e33f 4f75 653f da0c afbf
00000170: 7b53 11c0 eb6b e2bf 828c aebf 88fa 0240
00000180: aa76 8540 b35a 973c 3ea3 5abf d2d6 47be
00000190: c49f b1bf 4fdb 10c0 11c8 0140 a7bf adbf
000001a0: d8cd 94be f8b8 b43e afcd be3e 18ab 803e
000001b0: eea2 673e bcc6 23c0 e16b f43e 6c2b c4bf
000001c0: cd96 d6be 8800 3fbf df0b 693f 40b5 69be
000001d0: 2d20 123f ef9b 9fbe 4d1f 0840 a5f5 2c3f
000001e0: 28ba db3e 1316 24be 1864 8f3f 56c9 0340
000001f0: dd3a a83f 71be 1f3f 8585 2b3f 4672 1140
00000200: 8422 3cbf 0430 abbf 1776 0540 cefd 0740
00000210: 56ce b33e 00f4 2cbf 2c16 5bbc c755 b9be
00000220: bdb7 0f40 1eac e2bf c405 a6be 547f e3bf
00000230: 64be 1d3f c0e0 b0be 8596 c0bf b9d3 1640
00000240: c26d f9be 0515 c33e 2509 c03d 4552 dbbf
00000250: 29fb 87bd f02d d83f 52e4 86be 29c9 3fc0
00000260: fda2 fbbc 0d2c 4cc0 3713 dfbf 0e14 5cbd
00000270: 35ba 2240 2d7f aebe 070c d6bf f29a c8bf
00000280: f152 a7be 25d8 1f40 5e18 eebf 4716 cdbf
00000290: 7e5c ac3f 859d f53f 3a11 403f 1f4b b33f
000002a0: ff36 203c bac7 f33e b4c2 30bf 996f 053f
000002b0: 186d ce3f 3e7d 9cbf 6c45 39bf 779c af3e
000002c0: 5b29 d0bf 6ac5 243e ab6e 953f 2b49 acbe
000002d0: 12a4 87bd 09aa 03c0 33b2 5c3f 394c 8c3f
000002e0: ed2f 403e 2cc0 573e 64c6 16c0 de44 1e3e
000002f0: 83d0 8140 814a e83e 9cb5 753f f3f2 76bf
00000300: 399f c13d 0388 6c3f f87a 593e 04ba a03f
00000310: 5082 9bbe 2248 bd3c bd2a e2bf 5bdf fc3e
00000320: 7f58 9a3f ca2d b2bf f2f3 c03d d3be 02bf
00000330: c258 99bf 99bf c6bf 2992 2240 089a 1040
00000340: c8de cdbf 9c42 f2bf 265a 7dbf 38c7 b93f
00000350: 471a 78bf 3dd7 31bf 6bd1 9d3f 5e08 e0be
00000360: bf80 c43f 853f 0840 09bf fbbf 2244 abbe
00000370: 2ad2 5e3f 0ea6 8a3f ca5c 9bbe 59fe 45bf
00000380: 66a4 e4bf 13a4 bf3f c26e 4e3d f8d0 cdbf
00000390: c3f9 0440 23da 30c0 74a0 4ec0 7d0c 1040
000003a0: 6cb6 3cbf da82 b0bf bbae fabf e24e 8cbd
000003b0: a1cd debf 2fd0 863f d0e0 fcbe 2021 1a40
000003c0: 9404 da3f 9243 2ac0 c807 5fbf 89e2 debe
000003d0: e5df ea3f 63c6 37bf 699f 63bf 6e73 1bbf
000003e0: 3ad0 0ebf 2b70 dabf 49df b8be 2c3c 33c0
000003f0: 7473 8d3f 4e62 823d 517d 06be 5c3d 6f3f
0.047968805 -0.7568898 -1.1387094 1.5341573 -2.3329437 0.1251391 -0.61402977 0.39576218
-0.16765487 -0.33170688 -0.6176188 -0.53549266 -0.1681271 1.4237994 2.01522 -2.6099894
-0.34113008 -0.9839868 0.22316125 -2.8741405 0.46062922 -1.2268492 1.5257753 2.018713
0.68962616 0.16159412 3.348785 -0.89019763 -0.9966612 0.407521 2.0204773 -1.4104737
-1.7152857 0.9180557 0.013703861 -1.634251 -0.10152101 -2.4193997 1.8458652 -1.4605823
1.8087739 0.86271363 -0.49931148 0.47106332 0.383194 -1.373245 0.49624166 0.5578491
-1.3878629 0.26675087 -1.1401825 1.0684181 2.7776005 -2.228956 2.8052187 -1.8296388
-1.1878822 -1.2863792 -2.0966291 0.8797005 1.118681 -0.37220302 0.0935173 2.0047822
-0.69579995 -1.2172763 1.6590309 -2.4115615 1.2557201 -1.6478645 -0.0008459715 -1.5518452
0.72615105 -0.3928635 2.3704169 1.5058337 2.5926452 1.1788777 -0.19689359 -0.7591995
1.036099 -1.2064642 -1.4581976 0.88872373 1.0153458 1.1804817 -0.16508141 -0.34687433
-2.0471249 1.7771567 0.89632124 -1.3675797 -2.2707202 -1.7689184 -1.363663 2.0465412
4.1707354 0.018475866 -0.8540534 -0.19515541 -1.3876882 -2.2633855 2.027836 -1.3574113
-0.29063296 0.3529737 0.372663 0.25130534 0.22620746 -2.5590048 0.47738555 -1.5325751
-0.41911927 -0.74610186 0.9103374 -0.22823048 0.57080346 -0.31173655 2.1269104 0.67562324
0.42915463 -0.16024046 1.1202421 2.0591636 1.3142964 0.62399966 0.6700061 2.2725997
-0.73490167 -1.3374028 2.0853326 2.124866 0.3511836 -0.67559814 -0.013371985 -0.36198255
2.2455895 -1.7708776 -0.32426274 -1.7773232 0.6161864 -0.3454647 -1.5045935 2.3566725
-0.4871655 0.38101974 0.09376744 -1.7134482 -0.06639702 1.6889019 -0.2634607 -2.9966528
-0.030717367 -3.1901886 -1.7427739 -0.053730063 2.5426152 -0.34081402 -1.672242 -1.5672286
-0.32680467 2.4975674 -1.8601186 -1.6022424 1.3465726 1.9188696 0.75026286 1.40073
0.009778737 0.47613317 -0.69047093 0.5212341 1.6127043 -1.2225721 -0.72371554 0.3429906
-1.6262621 0.16090932 1.1674398 -0.33649573 -0.06623091 -2.0572531 0.8620941 1.0960761
0.18768282 0.21069402 -2.3558588 0.15455958 4.056703 0.45369342 0.9598024 -0.9646446
0.094541974 0.9239504 0.21238315 1.2556767 -0.30372858 0.023105685 -1.7669293 0.49389157
1.2058257 -1.3920224 0.09421529 -0.51072425 -1.1980212 -1.5527221 2.540171 2.2594013
-1.6083612 -1.8926578 -0.9896568 1.4513922 -0.96915096 -0.6946905 1.2329534 -0.43756384
1.535179 2.128877 -1.9667674 -0.3345042 0.87039435 1.0831926 -0.3034423 -0.7734123
-1.786267 1.4971946 0.050398596 -1.6079397 2.0777442 -2.763314 -3.2285433 2.2507622
-0.73715854 -1.3789933 -1.9584574 -0.06850983 -1.7406503 1.0532283 -0.49390268 2.4082718
1.7032647 -2.6603742 -0.8712125 -0.43532208 1.8349577 -0.7178709 -0.88915116 -0.60723007
-0.5578648 -1.7065481 -0.36107853 -2.8005476 1.1050858 0.063664064 -0.13133742 0.93453

lstm.weight_ih_l0 f4 [400, 36]
00000000: 6a1b 0c3f 2ab5 1a3e ea5a fd3d 58dd 00bf
00000010: 9b3a e1bf 0c12 5bbf 9578 813e 064a 8cbf
00000020: fd9d 03bf 5b0c 5e3d 9e00 033e 237e 7dbe
00000030: 08fa 843e 6524 d6be 11c0 153f 0059 17be
00000040: 6ce0 2c3f 74f9 e8bb b8d8 9f3e f43c 02bf
00000050: e28f 23bf d7e6 12bd 5329 5abd f495 483e
00000060: 640b fd3e d9bc cf3e dca5 b9be e8c1 0b3e
00000070: 26ce 883e eba2 b63e 19bf acbe 3428 0fbd
00000080: 6963 443f 0e8f c43e 8470 16be b34d 5dbd
00000090: a569 37be 32dd 8dbd 2e8c 373e eb7c d1bd
000000a0: 79a1 27bf 1df2 3c3e 88bd e83d b7c0 c13d
000000b0: 0992 2abe 27b7 dcbc 3502 a9bd 8bcd 503c
000000c0: c95f 163d bb74 de3e 1af0 573d b774 ce3d
000000d0: eadc 27be 92b8 0a3e 3fbf abbc 3887 91be
000000e0: c6c6 3d3e fa3c 523f f6e6 5a3f 2d7a 483e
000000f0: 7335 363f dbac 94bd 495d 2d3e dbd4 e13e
00000100: f1ca b8bc 2cba 7cbe afdf c93e a6d0 91be
00000110: 41ff 20be 6fe1 843b 01e2 cd3c a5c6 783e
00000120: 097b a53e e80c 1fbf 1074 043f 0eff 5cbe
00000130: cf30 093e e06f 063e 2a0c a4be 8774 973e
00000140: e12d 0a3f 7d7c b9be e3e2 ae3d 3e9e edbe
00000150: 106b 09bf 4aa7 dd3e 24fb 91bf c9e4 463e
00000160: e1af 083e bb3b 3dbd ef57 753f 7a5e 31be
00000170: 7e02 c83d f64c 3bbe c3ef 483e 4f2b 96bb
00000180: 6dd3 6e3e 7d08 10bf e8f3 8bbe e35c 233e
00000190: 03f2 51bf 8072 d9be 98fe 86be 6444 1c3f
000001a0: e5fc a3be c401 bcbe 3c2c d1bd d35f af3a
000001b0: 38fb 2f3f 9be5 8d3e 7981 93be dda1 4e3d
000001c0: dd2b 443e 66df ed3e f566 7cbf c110 193c
000001d0: 5e70 5bbe 31cb fbbe 2fa8 8fbe d8fd f1be
000001e0: 1da5 c5bc 87b2 8e3d e201 f1be 043c f43c
000001f0: fbff 51bc 9824 88bd 69c3 87be c6ee 13bf
00000200: 0c3d 483e c921 15bf 05b1 3c3e e24d cb3d
00000210: eb11 01bf 8c00 8fbe af51 3f3e e231 aebd
00000220: f1e8 94be 98d8 9f3e e671 c43e 4ce4 78be
00000230: afd7 45be a8a0 4ebe d5a1 023f 2333 a73d
00000240: 1c02 96bd f2f5 6f3e 91d5 9e3e e5dc 12be
00000250: 6adf 263e e0e2 ee3e 22cb d93e 9e4b 8b3e
00000260: 86b2 d8be 0303 053d 81b5 c3bd ad4a 59be
00000270: 838f 153f 3b13 a1bc 1acd 47be cec0 43be
00000280: b855 33bf c6cd 18bd 0de2 a5be 5f4b 1bbf
00000290: 7acb 673d 854f bfbe 590d 59be 4cd7 d2be
000002a0: e063 203e 04b4 7a3e 2353 b03e af21 c43d
000002b0: ed51 b9be bdfb ee3d 8688 593e 91d2 0ebe
000002c0: 00ca 0c3e 0665 49bf dfda 943d 50a4 e9be
000002d0: 1b41 1dbf e5ef 123e 2603 743f 5fda 6cbe
000002e0: 6612 49be 9bc9 293f 62b8 013f 8fd3 f63e
000002f0: 8511 0bbc a691 fd3d 4664 84be 0345 343f
00000300: b142 5bbf ac7a e9be 4408 72be 2ef0 f0be
00000310: 36ff c3bd cd92 a53d e7d0 11b9 012f b9be
00000320: 7e0f d33e 2d30 883e 03d9 3b3d a6e0 ff3e
00000330: 1da2 803d 287c c0be d6be ebbd a365 37be
00000340: a9e6 f13e f747 ffbc 50ab 0d3f 6859 083e
00000350: 9869 81bd 9c02 223d 1b2a e6be 13d5 ea3d
00000360: fa08 78be 1687 20be f070 a2be c249 1f3e
00000370: fbf3 423e 1d46 c03c b511 01bf bc04 74be
00000380: ab0d 9b3d 0693 b1be f3c3 7dbe 6e3c 523e
00000390: 011b 18be 596b 973c 5592 0f3e c9e8 223f
000003a0: a03d 0e3f 1a5a 423d aa4d 0c3e 363a 9f3e
000003b0: d433 25bd 3034 013d a76b 353c b067 343e
000003c0: 620e d03c 95a8 d3be e621 7dbc 80d7 23bd
000003d0: dd4d 593e b121 233f bffc 21be 97dd 69be
000003e0: ad32 fdbc 88ee 6fbd ca6c 9dbe 67dd ecbd
000003f0: fb8b 323e 3327 ccbb d7a3 443d 72ff b2bd
0.5472933 0.15108171 0.12370856 -0.50337744 -1.759601 -0.8557441 0.2528731 -1.096009
-0.51412946 0.054211 0.12793204 -0.24755149 0.2597201 -0.41824642 0.58496195 -0.14780045
0.6752994 -0.0071098153 0.3122003 -0.5087426 -0.6389142 -0.035864677 -0.053262066 0.19588453
0.49422753 0.40573767 -0.36259353 0.13648188 0.2671978 0.35671172 -0.33739546 -0.03495045
0.7671419 0.38390392 -0.14691359 -0.054029178 -0.17911394 -0.06926955 0.17924568 -0.10228904
-0.6548076 0.18451734 0.11364275 0.094605856 -0.1665727 -0.026942803 -0.08252374 0.012744318
0.03671244 0.43448433 0.052719213 0.10080855 -0.16392866 0.1354697 -0.020965217 -0.28423476
0.18532857 0.8212429 0.8550867 0.19577856 0.7117531 -0.07259532 0.16930117 0.44107708
-0.022557708 -0.24680394 0.3942847 -0.284795 -0.15722372 0.004055194 0.025132181 0.24294527
0.3232043 -0.6212907 0.517396 -0.2158167 0.13397525 0.13128614 -0.3204053 0.2958109
0.53976256 -0.3622779 0.08539369 -0.46409792 -0.5367899 0.43291694 -1.1404767 0.19423212
0.13348342 -0.04619954 0.958373 -0.17321196 0.097661 -0.18291077 0.19622712 -0.0045827995
0.2332284 -0.5626295 -0.27334523 0.15953402 -0.82009906 -0.4247017 -0.26366115 0.61041856
-0.3202888 -0.36720097 -0.10213515 0.0013379998 0.68742704 0.27714238 -0.28809717 0.050447334
0.19157358 0.46459502 -0.985946 0.009342373 -0.21429583 -0.4917846 -0.28058 -0.4726398
-0.024126584 0.06967645 -0.4707175 0.029813774 -0.012817378 -0.06647605 -0.26516274 -0.57786214
0.19554538 -0.5825468 0.18426903 0.09926964 -0.50417966 -0.27930105 0.18683504 -0.08505608
-0.2908397 0.31219935 0.38368148 -0.24305838 -0.19320558 -0.20178473 0.51028186 0.081640504
-0.07324621 0.23433664 0.31022313 -0.14342077 0.16296163 0.46657467 0.4253779 0.2720613
-0.42323703 0.032473575 -0.095561035 -0.21219893 0.58422107 -0.01966249 -0.19511834 -0.19116518
-0.7005267 -0.037305616 -0.32399026 -0.6066188 0.056590535 -0.37365356 -0.21196498 -0.41179883
0.156631 0.24482733 0.34438428 0.09576737 -0.36195317 0.11669109 0.21243486 -0.13947512
0.13748932 -0.78669775 0.07268309 -0.45633173 -0.6142747 0.14349325 0.95317304 -0.23130177
-0.19635925 0.6632325 0.5067197 0.4820828 -0.008488064 0.12381296 -0.25857753 0.70417804
-0.8564864 -0.45601404 -0.23635966 -0.47058243 -0.09570162 0.08084641 -0.000139061 -0.36168674
0.41222757 0.26599255 0.045861255 0.4997608 0.06280921 -0.37594724 -0.115110084 -0.17909865
0.47246292 -0.031162245 0.5533953 0.13315356 -0.063189685 0.03955327 -0.44954 0.11466422
-0.24222174 -0.15676531 -0.3172679 0.1555548 0.19038384 0.023470933 -0.50417644 -0.23829931
0.07570966 -0.34682482 -0.2478178 0.20530865 -0.14854051 0.018483805 0.14020665 0.6363645
0.5556278 0.04744921 0.13701501 0.310991 -0.04033263 0.03154391 0.01107303 0.17617679
0.025397483 -0.41339555 -0.015449977 -0.04000044 0.21221109 0.63723284 -0.15819071 -0.22838436
-0.030907953 -0.05857709 -0.30747062 -0.11565667 0.17436211 -0.006230259 0.048007812 -0.087401286

lstm.weight_hh_l0 f4 [400, 100]
00000000: c703 eebe 587c 1b3e a434 b73e 6742 863f
00000010: 2448 a5be 1ea6 cebe d9c0 90be 4fda 11bf
00000020: d969 073e 5a04 10be b813 973e c80d a5bc
00000030: b7d5 393f cfe4 66be 7725 b63e ef53 7cbe
00000040: b545 183f 9621 08bd d7c0 8c3f 2342 863e
00000050: 4894 29bf f8d0 24bf 03e2 043f cdf7 7abe
00000060: 287d c2bf 6492 af3e e733 90bf dbbb 2d3f
00000070: 83c0 7fbf 5378 2d3f 4f39 4e3f 6203 3e3e
00000080: 3cdc d0be ee44 5dbf a2ba 313f bbe8 4a3e
00000090: e102 063f b82a e33d 03bd 803f 4041 643e
000000a0: c3c6 27bf 8601 41bf 882a 4fbe 84f7 453f
000000b0: 3267 22bf 6a25 ae3e e80f 3a3f dc7d 97bf
000000c0: 9acb e33e 51c8 4dbf e7fa fabe 367c 3cbf
000000d0: 9a71 d5be 802a e93e 320e 28bf 16c9 303f
000000e0: 32fc e63e 2099 063e 2954 2fbf ab9a ac3f
000000f0: 8835 803f 6713 a5be 55f8 d2be f37f 323f
00000100: f2b9 943b 9407 87bf ba81 523f bf47 01bf
00000110: 8ba8 a3bf 4390 fd3e 5e8c 4abd a7bc f43d
00000120: 723c 21be 19d9 343e b13f e73f 9e78 f8be
00000130: 39fe 383e c5b3 a43f 7fe4 0bbf af17 523f
00000140: 4bac 34bf 2989 df3e 38bd c1be 5fb1 3f3f
00000150: d42f 9e3e 691d a83f 0e49 ad3e 3712 65be
00000160: 2358 55bf 23aa 52bf fec4 de3d b055 813f
00000170: 89ad 793f 145b 6f3f e7c4 ea3e 0667 f13d
00000180: 101d 85bf 97c5 22be 9e64 603e b40b 1ebe
00000190: d026 1dbf 5da9 19bf ed75 663e afbf e23d
000001a0: ba03 a9be 6961 30bf 014a ffbe 3e4d fcbd
000001b0: 3ba3 53bf be06 293d 29aa 4c3e 0f0a 323d
000001c0: daff 9c3d 3484 a0be e6b3 843f f8a1 293f
000001d0: 587e 06be 590c 2a3f 59c3 dbbe 597d a13e
000001e0: 2bf8 60be 7e76 42be 0800 c43e 3835 313e
000001f0: 1249 fe3e 8959 40be e84f 853e 97db 3b3f
00000200: 8b08 30be ccd4 343e 7525 813c f1ff 803e
00000210: 539c 82bd 0c8f 80be 74e6 023e 96a4 233f
00000220: 2a9a 25be b34d 4c3e fb0d 2a3e 0c30 983e
00000230: f893 e1ba d5e5 333f 6834 2b3f 204e cb3d
00000240: 03b4 533f 0332 38bf 3e1c 87bd 45c3 ebbe
00000250: 2512 bcbe b6bc 83bf b101 b5be 8392 403f
00000260: 2f1f cd3e 2a15 00be 554c cd3e 62b1 2b3d
00000270: 4803 5b3e e8d2 583f 7515 833a c515 a83f
00000280: 140b d63e 2d9a acbe 4ef3 a7be 0708 f63d
00000290: a83e e3be adaf d63d cbdc a23f 03b3 b5be
000002a0: d1a0 1e3e 70f6 2dbf 6f43 1d3f 212b b63c
000002b0: 3063 fc3e 241c ac3d fdbf 3c3e 54f5 113f
000002c0: cda5 a6be 72eb 73bd 1cb3 503f a46e 823d
000002d0: 3822 83be 47b1 983e a187 6d3e f2b6 163e
000002e0: 2ec4 65bf f052 a8be 2812 fa3d 2ea8 ddbe
000002f0: d6c6 2c3f d43a 073e 9178 7dbd d551 d63e
00000300: 1aab 29bf 2609 563e d567 993e 5c99 74be
00000310: 0df4 2a3f 72d7 d2bd 0b2e ae3e 4ddb e53d
00000320: 4c95 d63e ac3f 803e f490 433f 8c28 3e3f
00000330: 1386 0f40 dea7 2e3e b3a2 863d 80a6 8fbd
00000340: a1cf c3bb f975 fd3d f2db f73e f9f1 453f
00000350: d212 99be cfc4 523e 2502 043d 066c be3f
00000360: e5c0 b33e 937b 45be 411c 04c0 fa90 acbe
00000370: 27ba 3e3f 3b6b cbbe 8f4d e9be 2074 18bf
00000380: 8513 663e 7da1 1cbe 01e4 023f b9ab 833f
00000390: 3298 a33e 4a78 1fbb bb81 233f d966 563e
000003a0: 8412 01be 99b7 293f 9796 51be dcc7 dabf
000003b0: 7652 c3bf 0793 813f 94f1 02be de3e 6bbd
000003c0: 4b57 fcbf 557c 543f b422 54be 693d 0b3d
000003d0: db96 d6bf 5eca 0cc0 6807 ae3f dcdb f1bd
000003e0: 6182 873d ca07 8dbf 156b 4b3f 168f 9bbe
000003f0: 9497 3fbf 568e 6abf 0759 5ebd 68ef db3e
-0.46487257 0.15184152 0.3578235 1.0489014 -0.322816 -0.40361112 -0.2827213 -0.5697374
0.13223971 -0.1406416 0.29507232 -0.020148173 0.7259173 -0.22548221 0.35575458 -0.24641393
0.59481364 -0.033235155 1.099635 0.26222333 -0.66241884 -0.6438136 0.51907367 -0.24508591
-1.5194445 0.34291375 -1.1265839 0.6786477 -0.99903125 0.67761725 0.80556196 0.18555978
-0.40793025 -0.86433303 0.69425404 0.19815342 0.5234814 0.11092132 1.0057682 0.22290516
-0.6553766 -0.7539295 -0.20231068 0.77330804 -0.63438714 0.3401292 0.7268052 -1.1835284
0.44491273 -0.80383784 -0.49019548 -0.7362703 -0.41688234 0.45540237 -0.6564666 0.6905683
0.45114285 0.1314435 -0.68487793 1.3484701 1.0016336 -0.32241365 -0.41205087 0.69726485
0.004538768 -1.0549188 0.822292 -0.505001 -1.278581 0.49524125 -0.04945027 0.11950045
-0.15745714 0.17660941 1.8066312 -0.48529524 0.18065728 1.2867361 -0.5464553 0.8206739
-0.705754 0.43659332 -0.37839675 0.7488002 0.30895865 1.3133975 0.338448 -0.2237023
-0.8333761 -0.8229086 0.10877417 1.0104275 0.9753042 0.9349835 0.4585335 0.11787228
-1.0399494 -0.15895687 0.21913382 -0.15434152 -0.6138735 -0.6002405 0.22505923 0.11071717
-0.33010656 -0.68898636 -0.49861148 -0.1231942 -0.82670945 0.041266195 0.19986786 0.043466624
0.07665987 -0.31350863 1.0367401 0.6626277 -0.13134134 0.6642509 -0.42922476 0.31540945
-0.21969669 -0.18990514 0.38281274 0.17305458 0.49665123 -0.18784155 0.26037526 0.7338194
-0.17190759 0.176593 0.015764931 0.25195268 -0.06377473 -0.25109136 0.12783223 0.63923013
-0.1617209 0.19951515 0.16606896 0.29724157 -0.0017210236 0.7027257 0.6687684 0.099270105
0.8269655 -0.7195131 -0.06597184 -0.46047416 -0.36732593 -1.0291965 -0.35352853 0.7522356
0.40062854 -0.12508073 0.400973 0.041917212 0.2138797 0.8469682 0.0010000902 1.3131644
0.41805327 -0.33711377 -0.32802814 0.1201325 -0.4438374 0.10482726 1.2723631 -0.35488138
0.15491034 -0.6795416 0.6143102 0.022237362 0.49294424 0.08403805 0.18432613 0.57014966
-0.3254837 -0.05955071 0.815233 0.06368759 -0.25612044 0.29822752 0.2319627 0.14718226
-0.8975247 -0.32875776 0.12210494 -0.43292373 0.674909 0.13206035 -0.06188256 0.41859308
-0.66276705 0.20901927 0.2996203 -0.23886627 0.6677864 -0.10294999 0.34019503 0.11223469
0.4191078 0.25048578 0.76393056 0.7428062 2.2425582 0.17056224 0.06574001 -0.07014179
-0.005975679 0.12376017 0.48409992 0.77322346 -0.2989717 0.20582889 0.032228608 1.4876716
0.35108104 -0.19285421 -2.0642245 -0.33704358 0.74502796 -0.39730248 -0.45566985 -0.5955219
0.22468384 -0.15295978 0.51129156 1.028678 0.31952053 -0.0024333172 0.6386983 0.20937671
-0.1260472 0.6629577 -0.20467602 -1.7092242 -1.525954 1.0122994 -0.12787467 -0.057433
-1.971414 0.83002216 -0.20716363 0.033994112 -1.6764787 -2.1998515 1.359601 -0.11809513
0.06616665 -1.1018002 0.7946027 -0.30382603 -0.74840665 -0.9162344 -0.05428412 0.4295609

lstm.bias_ih_l0 f4 [400]
00000000: d1f1 0f3f f091 2c3e 526f 973e 4cd4 923e
00000010: 6e98 a53d 5f02 81be 1a98 653e 6007 e73d
00000020: 7943 2e3e 03ee a33e 20d3 2c3d d1d8 903e
00000030: 6249 a23e f0bf c13e 018a 903e 5265 023f
00000040: a152 cc3e 360f 9d3e dafe fa3e ec95 ce3d
00000050: c9b5 253d 097b 5f3d 149d f93d 25fc e63d
00000060: e11c da3e 3dac 193e cc4d 813e f9d4 ef3d
00000070: 74ee 593e 50ac 3d3e 5b64 9f3c 348b 0e3e
00000080: 6bbe 9e3e d1c4 823d 4358 073e 9439 f63d
00000090: b205 9e3d 66f9 a23d 4262 0c3e 5b9d 3a3e
000000a0: c180 f93e 2bf6 b43e bace af3e 8b32 cf3e
000000b0: 1c4c d43e 199d 9d3e f669 033f 1c1f 2f3e
000000c0: 2e9e 613e f824 883a 534e 9b3e 3f80 ff3e
000000d0: fe6e 6c3e 7f7b 5e3e b358 5a3e 6536 b83d
000000e0: 4c37 173e 9a7e 3c3d fb47 be3c f922 b23e
000000f0: f18d 43bd e211 0f3e dd27 683e a7f7 bf3e
00000100: 8d96 833e f53d 393e 700f b53e 6b45 b13e
00000110: 9617 623e b75f f13e 367c 4f3e ba9f c63e
00000120: 7d58 2e3e 4814 083f 9b26 ac3e acb0 3c3e
00000130: c428 553e 332c ab3d b81c 1d3e fe8b 0d3d
00000140: 81f1 203e 75c2 f93d 9a2b fe3d 8d9f 86bd
00000150: aa14 6b3e 7502 9e3d 10d7 873e bbd1 623e
00000160: 2071 97bd 251b 103e 45b0 f43a 3cc0 983d
00000170: 3cee 403e 2fe6 8c3e 21ed 643d b7a7 c13e
00000180: 2c9a 323e 921e 063e c074 3a3e ca65 363e
00000190: fdfd cf3d 16c6 e9bd 5c9f 253e 5deb cd3d
000001a0: 49fd 653e 3e75 283e 35f5 293e 8164 c83c
000001b0: d895 163e e4d6 613e 6e15 f2ba 16fc 193e
000001c0: 1c2d 47be 0657 e83d eb6a b13d 6742 43be
000001d0: da6d 86bd 86f3 75ba 4050 c8bd b13a cb3d
000001e0: c3d4 1bbe 9960 3e3e b7ab 053e e4fb b4bd
000001f0: 8da1 00bd 9ea6 313e 1117 383e 4adc 52bd
00000200: 0a2e b43d 1e4c 223d a44d 3a3e b51f 293e
00000210: ce48 c33d 4192 09bc b33e e3bd b572 113d
00000220: fc4c 4b3d a348 63bd 5eba 9fbd 6d22 da3c
00000230: 0a18 3cbe 1261 693d 67a4 72bd e235 f53d
00000240: b3c4 f7bd 5602 5fbd fec1 443d fa47 8a3b
00000250: 9d87 cbbc 7ee6 e83d 682b b2b8 fb9b cdbd
00000260: b671 e1bd 4b4f b5bd e7d3 5c3e 7358 46be
00000270: 88dd f0bd a2d8 003e aa82 513c bb9f d03d
00000280: 785a 453e 5e11 b0bb 474d 7b3d f30d 95bd
00000290: 62ab 503e e3af 963e df0f 1c3e 86ea 69be
000002a0: ab3e b73d 8929 11bd 5afa 79bd ae58 a03d
000002b0: 752a dabd 3878 df3d 5e2f 4abe 8f2a d73d
000002c0: cacd 393e 95db f1bd 4909 173e ee93 eb3c
000002d0: 1982 623c ef01 773e e523 a6be 0bd8 353d
000002e0: 7098 a7bb 8733 0abd 000b 6f3d 9c72 c83d
000002f0: d2f7 d23d 966d c7bc 556d c039 4250 203e
00000300: 9156 8c3d fe89 e33d 80ec c4bc 375e 833d
00000310: a5b5 efbd e494 9a3d 333d f03c f27d d03d
00000320: 8593 cfbd 92d2 183e 27f0 283e 9304 503e
00000330: 71cf b4bc 7f34 b8bd 6690 1a3d 57d8 60bd
00000340: 6e6d 07be ee2e f3bd 29a2 813d dc1d e83b
00000350: 4b77 b4bd 9465 d6bd 3b5e dc3d 3776 f53d
00000360: c52f 8b3d 0666 aabc 828b 55bd e727 5d3e
00000370: de7d 47bd 150d a33d bf07 423e c1b7 043d
00000380: edc8 de3c 0dc4 dbbd d341 a53d 8882 a23d
00000390: fc8b e0bd ec58 4a3e 2d14 523c 0603 c13d
000003a0: f283 273e c45d 8f3d 7d82 a7bd bd25 c4bd
000003b0: 4cd0 9abd 8b4f b83c 18e8 c33d 8e06 1b3c
000003c0: 4285 c7bd b476 a73d d589 b3bc 0e42 653e
000003d0: c53f 08bd 6e63 d23d b126 1b3e db27 36be
000003e0: 75f2 013e c820 53bd ccbd 093e 5c8d 89bd
000003f0: d56d 923d 6f65 0d3e bd5a ea3d 755f 053e
0.5622836 0.16852546 0.29577118 0.28677595 0.08085714 -0.25197122 0.22421303 0.112807035
0.17017926 0.32017526 0.042193532 0.28290418 0.31696612 0.3784175 0.2823029 0.5093585
0.3990679 0.30675668 0.4902256 0.10087189 0.040456567 0.054560695 0.121881634 0.112785615
0.42600158 0.1500711 0.25254667 0.11710543 0.21282369 0.18522763 0.019457033 0.1392029
0.31004652 0.06385196 0.13217263 0.12022701 0.0771593 0.07957725 0.13709357 0.18224089
0.48731044 0.3534406 0.34337407 0.4046825 0.41464317 0.30783918 0.5133356 0.17101711
0.22032997 0.0010386994 0.30333194 0.49902532 0.23089215 0.21726798 0.21322899 0.0899475
0.14767188 0.046019174 0.023227682 0.34792307 -0.047742788 0.13971666 0.22671457 0.3749363
0.257008 0.18090041 0.3536334 0.34623274 0.2207931 0.47143337 0.20262226 0.38793737
0.17025943 0.53155947 0.33623204 0.1842677 0.20816332 0.0835804 0.15342987 0.034557335
0.15717126 0.12195293 0.1241066 -0.06573401 0.22957101 0.077153124 0.26531267 0.22150318
-0.07394624 0.14072855 0.0018668255 0.07458541 0.18840879 0.27519366 0.055890206 0.3782327
0.17441624 0.13097599 0.18208599 0.17812267 0.10155866 -0.11414735 0.16174072 0.100546576
0.22459902 0.16450974 0.16597445 0.024461986 0.14705598 0.2205463 -0.0018469521 0.1503757
-0.19450802 0.113447234 0.08662971 -0.19068299 -0.06563921 -0.0009382296 -0.097809315 0.09923304
-0.15217881 0.18591537 0.13053785 -0.08837107 -0.031404067 0.17348716 0.17977549 -0.051479615
0.08797844 0.039623372 0.1819368 0.16516002 0.09535371 -0.008396686 -0.11095943 0.035509784
0.049633965 -0.055489194 -0.077992186 0.026627744 -0.18368545 0.05697734 -0.059238818 0.11973168
-0.12098064 -0.054445587 0.048036568 0.004220006 -0.024844939 0.11372088 -8.4957865e-05 -0.100395165
-0.11008017 -0.088530146 0.2156521 -0.19369678 -0.11761004 0.12582639 0.0127875 0.10186716
0.19272792 -0.005373164 0.061352994 -0.07278051 0.20377877 0.29431066 0.1524043 -0.2284337
0.089475 -0.03544 -0.06102977 0.07829414 -0.10652629 0.10911602 -0.19744632 0.10506164
0.18144909 -0.1180946 0.14749636 0.028757062 0.013824963 0.24121831 -0.3244926 0.044395488
-0.0051146075 -0.033740547 0.0583601 0.09787485 0.10301174 -0.024344247 0.00036702552 0.15655616
0.06852449 0.11110304 -0.024038553 0.064144544 -0.11704568 0.0754793 0.029326057 0.10180272
-0.10135559 0.14924076 0.16497861 0.20314245 -0.022071572 -0.08994388 0.037735365 -0.054893818
-0.13225338 -0.118741855 0.06329758 0.0070836376 -0.08811816 -0.10468593 0.107601605 0.11985438
0.06796221 -0.020800602 -0.052135 0.21597253 -0.04870402 0.079614796 0.18948267 0.032401804
0.027195418 -0.10730753 0.080691956 0.07935053 -0.109642 0.19760484 0.012822193 0.09424405
0.16358927 0.07000306 -0.081791855 -0.095775105 -0.07559261 0.022498867 0.09565753 0.009462012
-0.09742214 0.08176938 -0.02191631 0.22388479 -0.03326394 0.10272871 0.15151478 -0.17788641
0.12690146 -0.051544935 0.13451308 -0.06716415 0.07149855 0.13808225 0.11443088 0.13024695

lstm.bias_hh_l0 f4 [400]
00000000: 1f53 143f 0d18 e43d e353 e93d 7f9e 553e
00000010: b1b3 203c 21c0 d2bd dff4 913d 8a68 f33d
00000020: b302 193e a6ff d23e 393e 863d c036 983e
00000030: eec6 893e 32ca 7e3e 445e a33e 01ad 093f
00000040: 9df7 d83e 4c05 da3e 123f b93e b236 733e
00000050: 9766 603e 7b2b d33b e114 f63d c1bb 7abb
00000060: 17c4 943e d686 623e 45b6 833e 8c5d 113e
00000070: 1254 a23e 372b 6c3e 727a 683d 33ec 8e3d
00000080: 7a79 be3e 4a45 be3d 94e5 f63d 0af2 e23d
00000090: e8d8 fd3d 1225 483d e34d 5b3e af8b 1d3e
000000a0: 8d18 c03e 8198 8e3e 417f ad3e 766e 023f
000000b0: f908 de3e dd81 523e fc83 af3e e230 373e
000000c0: 9a23 183e 3b4f a23b 9de3 5b3e 7497 da3e
000000d0: 4b14 a73e 4f98 043d bc48 b03d 101f 333e
000000e0: e41b 083d 0c0b 263e 4bec 003d 030a c53e
000000f0: a9f1 293b 0547 813e 4ae2 e33d 0f06 c63e
00000100: 112d 3e3e a3a8 3f3e 7955 bb3e ccac 5e3e
00000110: cb95 723e c5ea b63e 6598 dd3d b0ac b53e
00000120: 3cb3 663e 5815 dd3e a333 983e 656d 4b3e
00000130: eefd 843d d4ea 533e 8cb5 8d3e ae76 5a3c
00000140: a0d3 093e e3d2 b43d f3b8 7c3e 7d78 223b
00000150: d6dd 593e 0ac7 033e 2826 4f3e 53d2 8b3e
00000160: b6b6 43bd 76f2 0b3e d577 edbc f69f 113d
00000170: 8fb7 103e e528 ca3e cada 043d 2511 b13e
00000180: 03f1 8e3c 0b77 093c 96a9 683e 590b 443e
00000190: bbb5 f63d f8c7 0abe 3e44 a53d d245 9e3d
000001a0: a47d 913e 074a 583c f146 bd3d adc7 1b3e
000001b0: 7b9c ab3d 27ae 353e 204e 543d 6219 423e
000001c0: 7cc8 39be 8c5f f53d 9125 193b 25e6 30be
000001d0: 066d 98bd 858e 6ebd 003f 933d ad61 8e3d
000001e0: abbe b4bd 609b a13d 4bfa 5ebc 0943 9f3c
000001f0: 6520 6cbd 499f d03d 3942 bd3d 0fca b8bc
00000200: 5c40 0f3e 1b15 1abd f7c7 423e af07 823e
00000210: 6b81 0e3e e8b7 253e 4697 b2bd 0c9b c33d
00000220: fae1 803d 81e8 d6bb c8e5 1bbd c8de 283d
00000230: e96e 2bbe a47a b8bd 7883 b8bd 7aaf 463e
00000240: 880e 4f3c b7d5 aabd 388e 473e 0816 d53d
00000250: 6bb6 993c 1f7d d43d 6879 01bd 22c5 8dbd
00000260: 8b23 b8bd 6668 1a3c 9fc6 1e3e 1b2b 8bbd
00000270: 81e7 a1bd fd58 4c3e c22b 923d f14e ab3d
00000280: 671a 083e 17d7 353d b12b 9c3d 2e2e 98bd
00000290: a9f4 263e 7e35 4b3e f446 163d f719 46be
000002a0: 1392 763d 0478 34be 6bbb 713d 8c2f 173e
000002b0: bae3 53be a1d0 153e ba70 24be 8c58 403d
000002c0: 1bf0 953c de7b acbd d3c0 113e 94ac 40bd
000002d0: b436 9fbc 6fae 233e 3ee9 77be 8dc8 823d
000002e0: 7ea2 8dbc 59b5 8bbd 756e acbd f809 7f3e
000002f0: 2195 e93c 9843 9abd 797d 16be becb b53d
00000300: 6c5d b63d 3b52 873c dd29 25bc e0d2 423e
00000310: 1445 6b3c 3214 2a3d 9d9b bfbd d585 473b
00000320: 90f4 35be 6dd9 053e bc2a 603e 22da 333e
00000330: 3b83 0ebd 030c 06be 81ec b33d 04af 97bd
00000340: 8e93 83bd d69c e1bd 666b 343e 7717 943b
00000350: f2ad babd 5534 43bd 80f0 163e f96d 0a3e
00000360: b076 293e 7334 54bd 7329 80bd 27bb 053e
00000370: c9cd 49bd 4f4d ce3c b0a0 243e 7278 8c3d
00000380: 9bb5 7dbd 0dca 57bd b7de 90bc 8eb0 203e
00000390: 42e3 c8bd e88c 323e 2537 61bd 8061 103e
000003a0: 3c13 c43d 512c 243d a81a 1bbe b944 02be
000003b0: 6ca9 c1bd ac1a de3d f30c 343d 4306 0f3e
000003c0: eca1 70bd 600b 6d3d dc68 76bd 0a36 7f3e
000003d0: 57be d83c d1ff 2c3e 87ea 0c3d a4cd 07bd
000003e0: e18d 1e3c d09f 33be 1bdd 1a3e 8df9 7e3d
000003f0: db4b 673b 6913 ce3b 5670 a73b 552a 0b3e
0.5793933 0.111374 0.11392953 0.20861243 0.009808467 -0.10290552 0.071267836 0.118851736
0.14942436 0.4121067 0.06554837 0.2972927 0.26909584 0.24881819 0.31907856 0.5377961
0.42376414 0.42582166 0.3618093 0.23751333 0.21914135 0.0064443923 0.12015701 -0.0038258883
0.29055855 0.22121748 0.25724998 0.14195842 0.31704766 0.2306336 0.056757398 0.06978645
0.37202054 0.092905596 0.12055507 0.110813215 0.12394887 0.048863478 0.2141643 0.15385316
0.3751873 0.27850726 0.3388615 0.509498 0.4336622 0.20557351 0.34280384 0.17889741
0.14857331 0.0049532927 0.21473546 0.42693675 0.3263267 0.032371815 0.08607623 0.17492318
0.033229724 0.16215152 0.031475347 0.384842 0.0025931394 0.25249496 0.111271456 0.38676497
0.18571879 0.18716674 0.36588648 0.21745604 0.23689954 0.3572599 0.108200826 0.35483313
0.2252931 0.43180346 0.29726896 0.1986595 0.06493746 0.20695049 0.27677572 0.0133339595
0.13459635 0.08829286 0.24679928 0.0024791055 0.2127603 0.12868896 0.20229399 0.27308902
-0.04778167 0.1366671 -0.028987804 0.03555294 0.14132522 0.39484325 0.032435216 0.34583393
0.017448908 0.008390198 0.22720942 0.19144954 0.12046381 -0.13552845 0.08069657 0.07728161
0.2841617 0.013201243 0.092420466 0.15212889 0.08379456 0.17742215 0.05183232 0.18954995
-0.18142885 0.11981115 0.0023368339 -0.17275293 -0.074426696 -0.058241386 0.07189751 0.06952224
-0.088254295 0.078909636 -0.013609479 0.019441145 -0.05764808 0.10186631 0.092411466 -0.022557287
0.13989395 -0.037617784 0.19021593 0.25396487 0.13916557 0.16183436 -0.08720259 0.09551057
0.062931016 -0.0065584783 -0.038060933 0.041228086 -0.16741528 -0.09007767 -0.09009451 0.19402876
0.012637742 -0.08341544 0.19487846 0.10404593 0.018763741 0.103754275 -0.031609923 -0.06922366
-0.08991154 0.009424305 0.15505455 -0.06795331 -0.07905484 0.19955821 0.071372524 0.08364666
0.13291322 0.04439458 0.07625521 -0.07430683 0.16304268 0.19844624 0.03668876 -0.19345842
0.0601979 -0.17623907 0.059016626 0.14764231 -0.2069234 0.14630367 -0.16058627 0.046959445
0.018302968 -0.08422063 0.14233713 -0.047039583 -0.019435264 0.1598451 -0.24210069 0.06385908
-0.017289396 -0.06821699 -0.084195055 0.24906147 0.028513493 -0.07532424 -0.14696302 0.08876751
0.089045376 0.016518703 -0.010080782 0.19025755 0.014359731 0.041523166 -0.09355853 0.003044476
-0.17769074 0.13071223 0.21891302 0.1756368 -0.03479312 -0.1309052 0.08785344 -0.074064285
-0.06424628 -0.11016242 0.17619094 0.004519399 -0.09115209 -0.04765733 0.14740181 0.13518514
0.16549182 -0.051807832 -0.06257906 0.13059674 -0.049268518 0.025183348 0.16076922 0.068589106
-0.06194077 -0.052682925 -0.017684324 0.1569235 -0.09808971 0.17436564 -0.05498423 0.14099693
0.09573981 0.040081326 -0.15146887 -0.12721528 -0.09456143 0.10844931 0.04395766 0.13967232
-0.05874817 0.057872176 -0.060158595 0.24922958 0.026457949 0.16894461 0.03440335 -0.0331551
0.009677381 -0.17541432 0.15123408 0.06224971 0.0035293016 0.006288935 0.005109827 0.13590367

dense.weight f4 [36, 100]
00000000: 048a 1fbe f9ed 073f 8e9d 6ebf 846d 153f
00000010: a09e 703e 85bb 663f 41d4 2dbd 0cd9 d3bd
00000020: 9eea 273e 6187 bd3c 5da5 3b3e e8c7 d13e
00000030: a74e acbe 399e e03e 701c 4cbf ac07 6a3e
00000040: 5444 0bbf 791b c2bd a442 cabe 2034 b63e
00000050: 746a 033f 97b4 5cbe 024f b5be e34d b0be
00000060: b3b3 f4bd d5c1 143f 1e3f 063f 0b48 74bf
00000070: bbda b0be 6e1c 2b3e c619 96be 0040 56b3
00000080: 307b febe e272 2e3d fc19 ee3d 577d b73e
00000090: abf4 cfbe 7a5f 343e a721 14be 00ab 30bd
000000a0: b241 7e3f 81a5 d9be 1d22 33bf 80e5 cf3d
000000b0: 4d43 50bf 10f2 8f3e a59b 8fbd fd78 e9be
000000c0: 4a63 0dc0 2eb3 fa3e ebea 3d3d 2b54 173f
000000d0: 9273 b43e 75dc 0e3f 45a4 dd3d 2238 c03e
000000e0: c709 313f 6c99 b8be 6b2f 83be 7c54 59bf
000000f0: c7be c1bc e7c7 38be abea 133f f8d5 793e
00000100: 486d 7fbe 6b30 b9bc 58a1 13be f9de bcbe
00000110: 8a6a 8f3d 1498 673e 988d 7bbe 77d6 813d
00000120: e4fe 06bf 0954 a13d fc54 63bf fe36 a9bc
00000130: 3098 1abd c6e7 4fbf 990a dc3f 8836 96be
00000140: 58a0 9b3e 9950 92be 7e4b 1b40 3ebb c0be
00000150: dae1 e83e e870 4d3d 92d8 943f b677 be3f
00000160: 16ac 32bf 86bd 453f 546b 6b3e ab30 e93d
00000170: a568 2f3f 6947 4ebe c63b 8c3c 85cf 033e
00000180: 0a3c b13e b0b1 163f fb1d 033f 22b6 5a40
00000190: d29c 48bf c936 60bf f091 153f 3439 223f
000001a0: be48 92bf 5b15 ff3e 8ee8 b2be 05fe ffbe
000001b0: 1c03 3e3e b5d8 d4be b749 fd3e 1da8 c3be
000001c0: 43f8 03bf eedf 24bf 4bed adbf 1372 dabd
000001d0: 02b3 d6be 7234 b73f 2256 993f 07b0 223f
000001e0: 309d 123f d719 4bbc 10ca 9bbe 308f 34bd
000001f0: ccdf a8bd f778 ba3e 2ca0 0e3f 038e 86bf
00000200: 01a1 0fbf 82b7 e03e 8fd6 43bf 29b1 5b3e
00000210: e359 07be 9c10 793f bb42 8abf bbdb 8ebe
00000220: 5c9a 98be 18e5 2fbf 2980 a4bf b197 4d3e
00000230: c86a 9c3f de48 083f d38e acbd 9dc5 c03e
00000240: 96d9 893e b14f d23d 5dc9 913e 9f88 afbf
00000250: fb5e 9abf 29f2 b33e e5a0 7a3e 64be 543f
00000260: a247 a73f 23fb c6be bcca 743f 90b3 353f
00000270: 51ef 843f 00b5 98bf dbcb 2dbf a26e dbbd
00000280: 9762 033e 6860 ce3e c9f5 de3e a2ba 86bf
00000290: 5f1f 9f3e 5875 4bbf 733e 233e f978 ab3f
000002a0: 34ec 713f 5c38 37bf 434a a63f daff 563f
000002b0: 1ace 01bf 8a49 633d 8c7e 7a3f c5d7 54bf
000002c0: fbbb 1cbf d720 393e 6ddf 8fbc 4db8 a33d
000002d0: d018 143f 8544 1ebf 0ac8 7f3f b9b8 b83d
000002e0: c656 563e 9479 febe 38cd fcbe 2a01 e13e
000002f0: 1d67 b43e 6f00 843f 6010 1d3f 1f43 103f
00000300: b709 0dbf 4b42 2b3f b3d0 20bd 57d8 903e
00000310: 4fc2 1dbe c838 153d 817d bbbe 2bfb ec3d
00000320: 57ca aebc 6b1e 40bf 134b d0be 7398 adbe
00000330: c8f5 8f3e fa54 703f a4a1 bc3e 0762 603e
00000340: dee4 973e 579d 96bf 4450 083f c1e8 30bd
00000350: 80fa db3d 1297 98bf 76d2 c1be 3638 20be
00000360: 5690 5d3f 278e fb3e acec c93f fe5f a03e
00000370: a3ee 813e 7fba 363f 8f7a 363e 0620 053f
00000380: 56cc 123e 319d 073f 3a1c 983e a1c5 133f
00000390: 2cd3 20bf 8369 823e e28c a03e 9ff9 52be
000003a0: 9e16 bf3d 0392 763f e434 893c 3420 4ebf
000003b0: eb88 b1bd fa99 dabe 9060 aa3e 1982 75be
000003c0: 5e6a f33d 983d 183f 3989 b8be 0867 c13c
000003d0: 69ec ecbe bf84 b33e 807e 8e3d 9151 1bbf
000003e0: 0a28 bdbe 5827 9d3e aa8f 36bf 2384 8e3f
000003f0: fa39 413f a768 b9be fa99 ed3e 9225 4d3e
-0.15579993 0.5309749 -0.9320916 0.5837023 0.2349801 0.9012988 -0.04243875 -0.10344133
0.16398093 0.023135843 0.183248 0.4097283 -0.33653757 0.43870714 -0.7973089 0.22854489
-0.54401135 -0.09477896 -0.39503968 0.35586643 0.5133431 -0.21553265 -0.3541184 -0.34434423
-0.119483374 0.58108264 0.5244006 -0.9542243 -0.34541878 0.16710064 -0.2931654 -4.9883965e-08
-0.4970336 0.04259003 0.1162605 0.35837814 -0.40616354 0.17614546 -0.14465962 -0.04313183
0.99318993 -0.42509082 -0.6997393 0.101511955 -0.8135269 0.28114367 -0.07012109 -0.4560012
-2.2091851 0.48964828 0.046366613 0.59112805 0.35244423 0.5580514 0.108223476 0.37542826
0.69155544 -0.36054552 -0.25622115 -0.8489454 -0.02365054 -0.18045007 0.5777995 0.24398029
-0.24944031 -0.022606095 -0.14417017 -0.36888865 0.070027426 0.22616607 -0.24565732 0.06339734
-0.5273268 0.078773566 -0.8880155 -0.020656105 -0.037742794 -0.81213033 1.7190734 -0.2933848
0.3039577 -0.28577116 2.4264827 -0.37642854 0.4548481 0.050156504 1.1628592 1.4880283
-0.6979383 0.77242315 0.22990161 0.11386236 0.6851905 -0.20144428 0.017118346 0.12872131
0.3461612 0.5886488 0.5121762 3.4173665 -0.7836429 -0.87583596 0.5842581 0.63368535
-1.1428449 0.4982098 -0.3494305 -0.4999849 0.18555874 -0.41571584 0.49470302 -0.38214198
-0.5155069 -0.6440419 -1.3588041 -0.10666289 -0.41933447 1.431288 1.1979411 0.63549846
0.572711 -0.012396297 -0.304276 -0.044081867 -0.08245811 0.36420414 0.5571315 -1.0512089
-0.5610505 0.43890005 -0.76499265 0.214543 -0.13217883 0.9729097 -1.0801615 -0.27902016
-0.29805267 -0.68708944 -1.2851611 0.20077397 1.2220087 0.53236187 -0.08425679 0.37650767
0.26923817 0.10269106 0.2847394 -1.3713568 -1.2060236 0.3514569 0.24475439 0.83103013
1.3068736 -0.38863477 0.9562185 0.70977116 1.0385534 -1.1930237 -0.67889184 -0.10714461
0.12830578 0.40307927 0.43546894 -1.0525706 0.31078622 -0.7947593 0.15941791 1.3396293
0.9450104 -0.7157037 1.2991413 0.8398415 -0.5070511 0.055490054 0.97849345 -0.8314174
-0.61224335 0.18078934 -0.017562592 0.07994137 0.5785036 -0.618233 0.9991461 0.09019608
0.20931539 -0.49702132 -0.4937532 0.439462 0.3523492 1.0312632 0.6135311 0.5635242
-0.5509295 0.6689803 -0.03926153 0.28290054 -0.15406154 0.036431104 -0.3661919 0.11571344
-0.021336718 -0.75046414 -0.40682277 -0.33905372 0.28117204 0.93879664 0.36842072 0.21912394
0.296668 -1.1766766 0.53247476 -0.04319072 0.107411385 -1.1921103 -0.3785588 -0.15646443
0.86548364 0.4913189 1.5775352 0.31323236 0.25377378 0.7137832 0.1782019 0.5200199
0.1433576 0.5297423 0.29709035 0.5772343 -0.6282222 0.25471124 0.31357485 -0.20603035
0.09330486 0.96316546 0.016748853 -0.8051789 -0.08668693 -0.426956 0.33276796 -0.2397541
0.11885522 0.59468985 -0.36042193 0.0236087 -0.46274117 0.35062215 0.06957722 -0.60671335
-0.3694461 0.3069408 -0.71312964 1.1134075 0.7547909 -0.36212656 0.46406537 0.20033863

dense.bias f4 [36]
00000000: 75be 59be a74d b9be 24f5 34bf 2f8b 1f3e
00000010: a499 963e 3672 9f3e 91e6 b83e a331 c5bd
00000020: 0d2d 70bd a463 66be 3f29 6e3e acaf d13e
00000030: 822d cc3e ebc2 143e f6d0 3c3e 3b7f afbd
00000040: cd8d a7be 0b62 e5bc f143 af3e 9a28 823e
00000050: bf4e 903d 24c8 943d 6749 b33e 591d 2abd
00000060: 5eae 943e 7695 863d fcb8 163d c8cc b33e
00000070: 21a0 7fbe c510 78be 2fa3 ea3d 753f b93d
00000080: 9626 b8be c3d7 b63d 9232 c03d 1ad4 05be
-0.2126406 -0.36192057 -0.70686555 0.15580438 0.29414093 0.31141824 0.36113408 -0.09628608
-0.058636714 -0.22498947 0.23257922 0.4095434 0.3987847 0.1452748 0.18439087 -0.08569189
-0.32725373 -0.028000852 0.34231523 0.25421602 0.070462696 0.07264736 0.3501694 -0.041531894
0.29039282 0.06571476 0.03679751 0.35117173 -0.24963428 -0.24225147 0.11456906 0.090453066
-0.3596694 0.08927872 0.093846455 -0.13069192
