rnn_model.pt (torch, 76572 bytes, 5 tensors)

embedding.weight f4 [36, 36]
000000 bd c5 01 40 0f 60 aa be dc a3 c7 bf a2 f3 1d 40
       2.027694 -0.33276412 -1.5596881 2.4679952
000010 1d 11 47 c0 57 e6 49 bf fa 23 37 c0 59 8a ed 3f
       -3.1104195 -0.78867096 -2.8615708 1.8557845
000020 a1 f7 2b 40 29 e2 64 3f 7a 55 f2 3e 2d 7a 3b 3e
       2.686989 0.89407593 0.47330838 0.18308325
000030 56 63 67 40 a0 2c 6f bf da 96 35 c0 2f 76 02 c0
       3.615438 -0.9342747 -2.8373322 -2.0384634
000040 11 5c 3b 3f 20 90 12 bf 30 1d fd be 24 ec 87 3f
       0.7318736 -0.5725117 -0.4943633 1.0618939
000050 7e fe 5b 3f e1 06 79 bf 5f d8 b2 be 3a 52 99 be
       0.859352 -0.9727612 -0.34930703 -0.29945546
000060 6d ae 07 3f 01 62 52 3f 2c d5 41 be c9 f5 e1 3c
       0.5300053 0.8218079 -0.18928975 0.02758302
000070 22 e3 a2 3f 78 27 83 bf 8e 8f bd 3f ef 4a 96 be
       1.2725565 -1.024642 1.4809434 -0.29354045
000080 f8 d2 27 bf 00 21 6b 3e 60 75 b7 bf 8e 0f cc be
       -0.6555629 0.22961807 -1.4332695 -0.39855617
000090 b6 e2 e0 3e 1b 51 b4 3f f0 06 1f c0 7a a5 56 3f
       0.43922967 1.4087251 -2.4847984 0.8384625
0000a0 b1 a9 24 3f 3b e8 28 c0 4d ec 32 40 fd 99 6e 3f
       0.6432143 -2.6391742 2.7956727 0.9320372
0000b0 b9 71 8b bf 26 1e 25 bf fc 81 52 bf 6f 30 67 bd
       -1.089408 -0.6449913 -0.8222959 -0.056442674
0000c0 ca 54 2e 3f 96 d4 59 3f ae 31 b4 bf 7a 37 8c bf
       0.6809813 0.85090005 -1.4077661 -1.095443
0000d0 14 b5 d8 bf 96 fe dc bf 3c d9 cf 3f 22 ff 51 3f
       -1.6930261 -1.7265193 1.623817 0.82029927
0000e0 75 57 eb bf 62 0a 51 be 19 73 2a c0 87 fe 11 bf
       -1.8386065 -0.20414117 -2.663275 -0.57029
0000f0 29 7b 7b bd 4d ff 11 bf 1c 91 43 bf 0a 33 25 be
       -0.06139675 -0.57030183 -0.76393294 -0.16132751
000100 83 4c b9 bf 63 ed ab bf 62 68 78 bf fc bd 68 3f
       -1.4476475 -1.343182 -0.97034276 0.90914893
000110 57 9c c8 3f 4a 42 a4 bd dd 90 d9 3d cc a8 5c 3f
       1.5672711 -0.08020456 0.106233336 0.86195064
000120 13 ab ae be b8 8b 71 c0 9e 2c 8f bf 32 30 36 3f
       -0.34114894 -3.7741528 -1.1185491 0.7116729
000130 f3 f5 3d 3f 2f 4c 5a bf fd e7 02 40 4f 05 b9 3f
       0.74203414 -0.85272497 2.0454094 1.4454745
000140 64 a5 af bf a7 4b d5 be 64 43 07 c0 bf 74 07 c0
       -1.3722348 -0.4165928 -2.1134882 -2.1165006
000150 2e 66 e3 be e5 ae a6 40 7a e6 7a bf b2 bf 19 c0
       -0.44413894 5.2088494 -0.9800793 -2.4023252
000160 a8 2f 5d 3d cf 1d e7 bf 5b 9c 64 bf c2 8b 95 3f
       0.054000527 -1.8055972 -0.8930108 1.1683276
000170 74 28 8d bf d7 52 81 3f 4f bf 87 bd a0 75 61 c0
       -1.102797 1.0103406 -0.06628286 -3.5228043
000180 cb bc 40 3f 72 6d d4 bf c6 51 55 bf cb dc de 3f
       0.75288075 -1.65959 -0.833279 1.7411131
000190 44 62 a9 bf 54 52 ab be 15 56 5e c0 ad 36 10 40
       -1.3233113 -0.3346125 -3.474004 2.2533371
0001a0 9f 05 b1 bf 8a 31 86 c0 86 ec 09 c0 65 6b f2 3f
       -1.382984 -4.1935472 -2.1550612 1.8939024
0001b0 54 78 ab bf 7f 1c 36 be 4d ab 9d be bc 89 3f bf
       -1.3396096 -0.17784308 -0.30794755 -0.7481954
0001c0 e1 79 95 3e 64 25 fc 3e b4 50 2c 3e c7 02 1d 3d
       0.2919455 0.49247277 0.16827661 0.038332727
0001d0 58 63 4d bf 7c 15 e1 3c ed cb 1e 3f e0 61 a4 3e
       -0.8022971 0.027476065 0.62029916 0.32105923
0001e0 35 22 ec 3f 31 50 08 c0 fd ec fd 3e 4b ad d6 bf
       1.8447939 -2.1298945 0.4959487 -1.6771635
0001f0 4a eb a4 3f 86 20 92 be 79 a8 e8 3f 1b 38 71 3f
       1.2884305 -0.28540438 1.8176414 0.94226235
000200 f2 c5 d9 bf cb e6 74 bf 9e f2 af 3e ab 97 99 3f
       -1.7013533 -0.9566466 0.3436479 1.199941
000210 fa 8b 96 3f 34 ab 35 40 cc 6f 14 be 68 b3 0f 40
       1.1761467 2.8385744 -0.14495772 2.245325
000220 d5 cf fc bd 91 a0 91 3f d5 82 2f 3f f8 6d d2 3f
       -0.12344328 1.1377126 0.6855901 1.643981
000230 f7 01 9b 3f 73 02 b5 3f 7f 0f b6 be 11 6a b0 3f
       1.2109975 1.4141372 -0.35558698 1.3782369
000240 ae c7 bf be f8 3c 95 be e2 bd 19 3f fb 1d 2f 3f
       -0.3745703 -0.29148078 0.60055363 0.6840512
000250 e3 4e 06 bf 39 75 83 3f a7 d7 14 c0 0a 7e a0 bf
       -0.5246412 1.0270149 -2.3256624 -1.2538464
000260 11 1f 1c bf f2 83 13 bf 73 95 ef 3e b4 8c 42 3f
       -0.60984904 -0.5762321 0.46793708 0.75995946
000270 2a 6d 9a be a6 94 7b be 9e f4 fa 3f 1a 7e 2a c0
       -0.3016141 -0.24568424 1.9605901 -2.6639466
000280 db 54 8f be 27 01 e7 3f 63 07 97 bf 6d 76 1f 40
       -0.27994427 1.8047227 -1.1799129 2.4916031
000290 87 7f 18 c0 88 47 79 3f 60 84 d3 be 32 3c 6d 3f
       -2.3827837 0.97374773 -0.41311932 0.92669976
0002a0 a2 dd 11 40 8a 11 60 bf ac 20 75 3f 86 a0 d2 bf
       2.2791524 -0.8752676 0.9575298 -1.6455238
0002b0 73 37 82 bf 76 21 78 3f 73 ad 99 bf 48 b3 cc be
       -1.0173172 0.9692606 -1.2006058 -0.3998053
0002c0 a3 d6 10 bf 47 85 ce 3e 7e ff c7 3f b6 1b c4 be
       -0.5657751 0.40336058 1.5624845 -0.38302392
0002d0 e6 da f8 bf 35 a2 f2 3e a4 51 81 bf 8f 2c 93 3f
       -1.9441803 0.4738938 -1.010304 1.1497973
0002e0 9f bb ce 3f 27 d3 3a c0 04 95 cc bf a4 d2 aa be
       1.6151007 -2.9191377 -1.5982976 -0.3336383
0002f0 8c 6e 3f 40 a6 2d 6a 3f 4a 1b 38 c0 65 ca 43 bf
       2.9911222 0.91475904 -2.8766656 -0.76480705
000300 1f 32 3f 3f c5 e2 43 bf 22 f7 a7 3f 74 4e 13 bf
       0.74685854 -0.765179 1.3122294 -0.57541585
000310 60 eb 27 c0 1d 21 66 bf 5f e0 cd bf 2b 48 90 3f
       -2.6237411 -0.89894277 -1.6084098 1.1272024
000320 8e ed 79 be 0e e7 1a 3e d9 7f 86 3e 54 7b 53 3f
       -0.24407026 0.15127203 0.26269415 0.8261006
000330 6a 2f b4 bd 71 68 00 40 10 26 19 3f 9e 87 0f bf
       -0.08798106 2.0063746 0.59823704 -0.5606631
000340 8c d0 8f 3f d1 ba 9a 3f e0 3e db bf fb 62 0a 3d
       1.1235518 1.2088262 -1.7128563 0.0337858
000350 44 5f be 3f 85 2c 10 3f 41 34 31 bf 75 2c a7 be
       1.4872823 0.5631793 -0.6922036 -0.32651106
000360 e4 00 37 3f 91 dc 4f 3f 77 57 b8 bd b4 34 0f 3d
       0.71485734 0.8119593 -0.090010576 0.03496237
000370 27 9f 40 bf 76 e4 de 3e 5a 5a 86 3d 4b 35 b0 3d
       -0.7524285 0.43533677 0.06560202 0.08603915
000380 6d 14 24 3e 2b 4d d8 3f c8 a6 76 3f 42 cb 04 40
       0.16023417 1.689855 0.9634824 2.0749059
000390 d3 19 bc bf 2f dd 09 3e c0 e9 b4 bf 59 0f 5d 3f
       -1.4695381 0.13463281 -1.4133835 0.86351544
0003a0 d5 97 e7 be 53 bc 0b 40 5f 12 82 3f 35 3b 99 bf
       -0.45233026 2.1833694 1.0161856 -1.1971194
0003b0 bd d7 8d 3f a6 ee eb 3e 2a 09 b4 3f fe 4e b8 bf
       1.1081463 0.46080512 1.4065297 -1.4399107
0003c0 cd ae b5 bf 50 07 cf 3f 21 29 7c bb db 04 54 bf
       -1.419397 1.6174107 -0.0038476663 -0.8281991
0003d0 ba 89 58 bf 0a 34 ca 3f f7 5c de bf a3 76 99 3f
       -0.84585154 1.5797131 -1.7372121 1.198933
0003e0 ad 73 b7 3f a3 81 1b 40 7b 91 59 3f b2 fc bc bf
       1.4332176 2.4297874 0.8498761 -1.4764616
0003f0 80 04 c4 3f 57 b2 fd 3d a9 a5 40 3f a8 32 30 3f
       1.5313873 0.12387531 0.7525278 0.68827295

rnn_update.weight f4 [100, 136]
000000 71 7c 9a be 1d e0 a0 be 3b 1b 6b bf d9 9e 87 3d
       -0.30173066 -0.31420985 -0.91838425 0.06622095
000010 fb d4 38 be 87 a9 f0 be 52 cd 0c 3f 80 95 53 3e
       -0.18049996 -0.4700434 0.55000794 0.20662498
000020 4a 6c f1 bd 53 ea 9f bd 00 4c 6b be 69 79 10 3e
       -0.117882326 -0.07808366 -0.2297821 0.14108814
000030 91 8f 73 bf d6 74 9e bd 57 e2 76 be 95 9a 7f be
       -0.9514094 -0.077371284 -0.2410978 -0.24961312
000040 40 3b 29 3f 63 4f b0 3d f2 74 c0 bd 12 2b 18 3f
       0.66106033 0.08608892 -0.093973055 0.5944072
000050 9e 3b 7f 3e 8f e6 57 bf 35 2f 0b 3f 5a ce 92 3e
       0.24925086 -0.8433618 0.5436891 0.2867306
000060 0a 5a ea 3d 00 50 cd be a1 5e cf bd 57 db 1d 3e
       0.11442955 -0.40100098 -0.10125471 0.15415703
000070 c2 96 f1 be 9a 81 b9 bd 43 be f7 3e 08 65 1d bf
       -0.47185332 -0.09057923 0.48387346 -0.61482286
000080 c9 24 5f 3f 7d d4 d1 bc 33 14 15 3f 5a f5 65 3f
       0.87165505 -0.025614018 0.58233947 0.898275
000090 94 b3 3c be 71 24 9b bb bd 3b 6d 3e ba 42 58 3f
       -0.18427879 -0.0047345688 0.2316732 0.84476817
0000a0 18 39 a7 ba c5 8f 81 3e 52 e1 85 be 12 f8 49 3c
       -0.0012758104 0.25305 -0.26148468 0.012327211
0000b0 57 8e 6b bc 80 30 28 bd e6 86 ab be a6 31 8c 3e
       -0.014377198 -0.04106188 -0.33501357 0.2738163
0000c0 53 cd bf 3d 72 2e e2 be a7 e5 b5 3e b7 12 0c 3f
       0.09365334 -0.4417606 0.35526773 0.54716057
0000d0 38 65 b7 3e f1 23 a4 be 64 af d2 be ed a6 08 3f
       0.3581941 -0.3205867 -0.41149437 0.5337971
0000e0 4f 71 f4 be bd e0 45 bf 93 c6 91 3e f5 5a 88 bd
       -0.47742698 -0.7729605 0.28471813 -0.06657974
0000f0 0a aa 13 3f b2 20 f8 3e b4 7c c9 3e 24 30 cd bf
       0.57681334 0.48462445 0.39352953 -1.6030316
000100 3a 09 a1 3e 2a 35 91 bd e0 52 58 be fe 92 27 bd
       0.31452352 -0.07090218 -0.21125364 -0.040911667
000110 03 cc 3a 3e bc 0b 9b be 9a 8a 0a 3e dd 59 7b bd
       0.18241887 -0.3028239 0.13529435 -0.061364997
000120 54 73 e3 3e ff 45 d0 bd 09 db 57 3f 56 87 f3 3e
       0.44423926 -0.10169601 0.84318596 0.4756419
000130 93 35 03 bf 08 64 63 3d f8 58 91 3d 9e e1 20 3f
       -0.5125362 0.05551532 0.070970476 0.62844265
000140 b2 14 52 be 28 ed f9 bd ad 46 10 bf 04 47 c5 bd
       -0.20515707 -0.12203437 -0.5635784 -0.09632686
000150 89 b2 3f 3f a2 99 26 3f 9c fc 14 3f a4 53 06 bd
       0.748818 0.65078175 0.5819795 -0.03279461
000160 1a 2b a7 be 89 c5 cb 3c 39 35 53 3e ba e4 39 3f
       -0.3265007 0.024874466 0.20625772 0.72614634
000170 e4 fd 2f 3f fa f7 23 3e ea bc 88 be 3d 79 aa bd
       0.6874678 0.16012564 -0.2670663 -0.083239056
000180 64 34 d9 be bd 63 07 3f d7 a3 b9 3e 91 f4 00 be
       -0.42422783 0.52886564 0.36257812 -0.12593295
000190 c6 24 ce be f6 74 97 3f 95 a2 4b be e4 46 47 3f
       -0.4026243 1.1832569 -0.19886239 0.77842546
0001a0 0d 6b 46 3a 35 31 f5 bb f6 01 04 3f e9 c5 97 be
       0.00075690524 -0.0074826726 0.5156549 -0.2964318
0001b0 c1 ff cf 3e c4 df 93 bd f4 df 9a be 9a d1 74 3f
       0.40624812 -0.07220414 -0.30248988 0.95632327
0001c0 0b dd c4 be 1c ff 1e 3f 51 ec ff be bd 9c 75 3e
       -0.38449892 0.62108016 -0.49984983 0.23985572
0001d0 a6 46 32 be 65 76 d3 be 08 5e 0f be 63 9c 83 be
       -0.17409763 -0.41301265 -0.14000714 -0.2570525
0001e0 7a 04 b8 be 39 e8 33 be 96 f2 96 be 9f 82 d8 be
       -0.35940915 -0.17569055 -0.29481953 -0.42287156
0001f0 13 17 51 be f8 30 88 be bc 94 51 3e 22 39 47 3e
       -0.20418958 -0.2659986 0.20466894 0.19455388
000200 92 cf c2 3e 37 be 9f be d2 f9 ea be c3 f3 40 3d
       0.3804899 -0.3119981 -0.45893723 0.04710747
000210 7e d8 be 3e 07 b0 4b bf 11 54 ba 3e c1 4c 70 3d
       0.37274545 -0.7956547 0.36392263 0.05866695
000220 a9 67 06 bf 2a 10 1c bd 8c 0c 1a 3e 39 4e 20 bf
       -0.5250192 -0.038101353 0.15043849 -0.6261936
000230 b7 c1 7a bc 57 53 61 be 3b 8f 3e be 82 b3 ec 3d
       -0.015304974 -0.22004448 -0.18609326 0.11557676
000240 e8 d0 24 bf 97 52 f1 3e 35 98 fd be 8e ba b9 bd
       -0.64381266 0.47133324 -0.49530187 -0.090687856
000250 a2 5c a7 be a9 4c f4 3c 72 8b a2 be ad 1f 65 bf
       -0.3268786 0.02982171 -0.31747013 -0.8950146
000260 4e fb fc bd ec 26 c9 3e b3 09 a2 3e d9 57 1f be
       -0.1235262 0.39287508 0.31648025 -0.15560855
000270 62 5b be be e1 b3 d3 3d c4 9f 08 be 32 7f b3 bd
       -0.37179095 0.103370436 -0.13342196 -0.08764495
000280 33 cf 92 3e 78 62 37 3e 50 84 b7 be 3d 68 89 3c
       0.28673705 0.17908657 -0.35843134 0.016773337
000290 ca 2c 9d 3b ac 8d c5 3e da 4d f3 3d 89 34 d2 3e
       0.004796599 0.3858465 0.118800834 0.41055706
0002a0 61 3b da 3e 33 eb ba be 72 af 56 3e 4e 08 38 be
       0.42623428 -0.36507568 0.20965365 -0.17971918
0002b0 6b f1 ff be f7 43 60 3e 97 98 1a be 37 86 46 bf
       -0.49988875 0.21900927 -0.15097271 -0.77548546
0002c0 3c 89 27 be 7e 3f 37 be be be c8 3d 35 95 c6 be
       -0.16360945 -0.17895314 0.09802006 -0.3878571
0002d0 0c bc a0 3d 39 85 e3 bd ec 3a fd be 52 ba 11 3e
       0.07848367 -0.111093946 -0.49459016 0.14231232
0002e0 7a ec 5f be ec 58 9a 3d b2 51 d3 3e 12 54 8c 3d
       -0.21867552 0.07536492 0.41273266 0.06851973
0002f0 60 67 2d bc 67 d1 2e bf f5 df aa be 98 f5 46 3e
       -0.010583729 -0.6828827 -0.3337399 0.19429624
000300 a4 36 04 bc cf ff 0e 3f f5 a2 64 be b2 b6 40 bf
       -0.008069668 0.5585908 -0.22327788 -0.7527877
000310 2c a0 ae bc 79 e3 f0 be 89 5e 14 bf 9b 57 f1 3d
       -0.02131661 -0.47048548 -0.5795675 0.117842875
000320 fe 34 07 3e 45 d1 2e bf 51 0c 0e bf 04 b8 a5 3e
       0.13203809 -0.6828807 -0.55487543 0.32366955
000330 72 13 9a 3e 38 2c 6b bd a8 54 57 3b 46 8e 17 3f
       0.3009296 -0.057415217 0.0032856856 0.5920147
000340 2f c4 c2 3e 49 16 2d be 5d b2 a3 be 1f f3 93 be
       0.380403 -0.16903032 -0.31972018 -0.28896424
000350 51 67 a8 be 32 6d 4e 3d d9 de 99 3d 00 dc 82 be
       -0.32891324 0.050397106 0.07513208 -0.25558472
000360 5d 39 5c 3c 93 98 c1 3e c8 29 41 3e 49 b4 9f be
       0.013441411 0.37811717 0.18863595 -0.31192234
000370 07 e5 14 3e 24 3a a2 3e f7 f8 28 bf f4 dc 88 3c
       0.14540492 0.31684983 -0.6600489 0.016706921
000380 35 9b 12 3e 1f 02 b8 3e fd 1e a4 bd 8f c7 35 3d
       0.1431702 0.35939118 -0.08013723 0.044379767
000390 51 1e df 3d 6b 1e 2b 3f 6e b6 97 3e 7e a8 7d 3d
       0.10894454 0.6684329 0.2963137 0.061928265
0003a0 2c c8 df bc b0 6b 0d bf e9 bf 65 3d 48 03 2b be
       -0.02731713 -0.55242443 0.056091223 -0.1670047
0003b0 d5 3c 0d be 32 3f 12 be 3d c7 03 3f 1c 95 22 be
       -0.13792737 -0.1428192 0.5147589 -0.15877193
0003c0 e6 b8 c1 be de b1 46 3e bb b8 46 bf 3a d1 c2 3e
       -0.3783638 0.19403788 -0.77625626 0.38050252
0003d0 47 29 74 bd 10 5a e3 3e 0e 4e 06 3f 16 35 90 3e
       -0.059609678 0.4440465 0.5246285 0.281655
0003e0 58 98 be be 30 3e 06 bf cc ac 68 3c e6 71 21 3e
       -0.37225604 -0.5243864 0.014201354 0.15766105
0003f0 d3 43 d4 3d 02 b2 a1 3d 05 36 a3 be d5 c4 47 bc
       0.10364499 0.078952804 -0.3187715 -0.0121929245

rnn_update.bias f4 [100]
000000 36 20 58 be 6d 2e 2a 3e 36 e4 ed bd 12 f4 c3 bd
       -0.21106037 0.16619273 -0.116157934 -0.09568037
000010 f1 1c 83 3e 27 b9 25 3f c0 bf f8 3c 5f c8 87 3d
       0.25608018 0.64735645 0.030364871 0.06630015
000020 67 95 ae 3b 91 65 9c bb 2f d2 24 bf 31 52 ce bd
       0.0053278687 -0.00477285 -0.64383215 -0.100742705
000030 c7 40 80 3e d1 19 64 3e bd e4 9f be bc 71 1f 3e
       0.2504942 0.22275473 -0.312292 0.1557073
000040 18 42 60 be ce 1f 77 bd 46 44 ab 3d 38 50 80 3c
       -0.21900213 -0.060333066 0.083626315 0.015663251
000050 63 dc 2b 3e 39 b8 5b 3e f1 6c 98 be f2 0a 80 3d
       0.1678329 0.21456994 -0.29770616 0.06252088
000060 80 fa cb 3e 31 d8 3a bb ae f7 c1 bd b4 50 83 be
       0.39839554 -0.0028510208 -0.09471069 -0.2564751
000070 1f 65 a8 bd 10 7e 1f be dc 22 35 3e 91 64 0a 3e
       -0.08222412 -0.15575433 0.17689079 0.13514926
000080 51 c9 2c be 54 2c 8c 3d 38 37 62 be b0 2b 5e 3e
       -0.16873671 0.068443924 -0.22091377 0.21696353
000090 2f 4d ee bd f2 64 f7 3d 03 65 cc be ae 30 1e be
       -0.11635815 0.12079801 -0.39920816 -0.15448257
0000a0 30 1d a2 3d 01 64 78 3d 0a 37 8c be 64 87 0e 3e
       0.07915723 0.060642246 -0.2738574 0.13918835
0000b0 4c 92 65 be 69 17 02 3d b4 1e 8e 3d d3 f4 6b 3e
       -0.22419089 0.031760607 0.0693945 0.23042612
0000c0 ef b2 c0 be 10 0c e6 3d 0a f8 b3 bd 22 fb 1e be
       -0.37636515 0.112327695 -0.08787544 -0.15525487
0000d0 52 9b 3a bd b8 98 17 3e 0c ef 6f be 83 b1 37 3e
       -0.04555828 0.14804351 -0.23431033 0.17938809
0000e0 73 5b 1c be 24 93 41 bd bd b4 e7 be b8 59 b4 3e
       -0.1526926 -0.047259465 -0.4525508 0.352247
0000f0 b1 c5 bd 3d c9 d9 bb 3c d6 ba 3d be bd 97 af bc
       0.09266222 0.022930996 -0.18528304 -0.02143466
000100 5b 53 0d bf 38 51 86 3e 7c 23 a1 3d a5 ed 17 bd
       -0.55205315 0.2623384 0.07868096 -0.03709187
000110 97 5f c4 3e 0f a1 23 3e 19 0d b8 3e 0f 0e 3e 3d
       0.3835418 0.15979408 0.35947493 0.046400126
000120 08 73 52 bf 17 77 20 3e 27 19 5e bd 75 d3 82 3e
       -0.82206774 0.15670429 -0.054223206 0.25551954
000130 61 40 e0 bc d7 7e 86 3e fc 24 4c 3e 37 cf 26 be
       -0.027374448 0.26268646 0.19935983 -0.16289984
000140 bc 48 d3 bd a1 a3 2a 3d 43 c7 12 be 31 ea 82 bd
       -0.10316607 0.041659955 -0.14333825 -0.06392325
000150 82 06 dc 3d bb 45 22 be e2 a0 05 bd 7f ac 96 bd
       0.10743429 -0.15846913 -0.032624133 -0.0735712
000160 f5 ee 07 3c 50 b6 5b bc 7b 03 86 be 84 3c 23 3e
       0.008296718 -0.013410166 -0.2617453 0.15941054
000170 6b f4 f7 3e b8 d8 ad bd be 0f b9 b9 db b5 de bc
       0.48428664 -0.084886014 -0.0003529768 -0.027186325
000180 21 62 b1 3e e3 a3 90 3d 84 2e 60 be 2d 66 4a bd
       0.3464518 0.07062509 -0.21892744 -0.04941385

rnn_to_logits.weight f4 [36, 100]
000000 04 05 aa 3e 44 09 96 be a5 53 90 bd 96 58 06 3e
       0.33206952 -0.29303944 -0.07047204 0.1311973
000010 7c 69 9e be 39 53 c3 be e1 30 21 3f 3e c5 89 bd
       -0.30939853 -0.3814943 0.6296521 -0.06727074
000020 53 6e 83 be 05 34 a4 bd cd 3f 6e 3e f6 95 87 bc
       -0.25670108 -0.080177344 0.23266526 -0.016551
000030 06 eb b0 be 83 dd 5f be 71 76 83 3e ab 87 0e be
       -0.3455431 -0.21861844 0.256763 -0.1391894
000040 f4 69 37 3e 4a 9a c4 3f 0c 62 46 3e 75 fc 3c be
       0.17911512 1.5359585 0.1937334 -0.1845568
000050 0c 87 ff bf a9 59 10 3d c9 25 d1 3d 41 a5 0f be
       -1.9963088 0.035241757 0.10212285 -0.14027883
000060 22 1f a1 bd a8 92 aa 3d 28 16 e7 3d fe c8 9c 3e
       -0.07867266 0.08328754 0.11283523 0.30622095
000070 d5 2a b9 3e 33 a3 da be 06 16 c8 be 96 bc 95 bd
       0.3616549 -0.42702636 -0.39079303 -0.073113605
000080 9f fa 2a bd 23 56 6e be e8 fe 16 3e 0f 4b 21 be
       -0.041742917 -0.23275046 0.14745677 -0.15751289
000090 dd f2 b9 3e 98 7e c0 be 60 d6 1e be 46 0d e0 3d
       0.36318102 -0.37596583 -0.15511465 0.10940032
0000a0 0f 63 75 be b7 e4 87 be e2 4f f7 be 79 da 15 c0
       -0.23963569 -0.26541683 -0.48303133 -2.3414595
0000b0 af 65 82 be 92 bb 59 3c fe c5 d6 bd 71 3e eb be
       -0.25468203 0.013289349 -0.10486983 -0.45946077
0000c0 50 b9 30 3e 1e 79 b4 be 53 2d 32 3e 50 9f c2 3e
       0.17258191 -0.35248655 0.17400102 0.3801217
0000d0 43 56 f6 bd 99 94 11 bf 35 5a c7 3e af f2 9a 3e
       -0.12028172 -0.5686737 0.3893601 0.30263278
0000e0 a2 ac bc 3e a4 16 46 be ab 63 63 3e e8 14 fd bd
       0.36850458 -0.19344574 0.22205989 -0.12357503
0000f0 40 2f 1d 40 57 34 c5 3d 61 35 f4 bc 0d 7e 7d 3e
       2.456009 0.09629124 -0.02981061 0.24755116
000100 93 12 3d 3f b7 19 88 3e c6 95 c8 bc 0b b2 d8 be
       0.73856467 0.2658212 -0.02448548 -0.42323336
000110 c6 3f 1b bf 48 2f a0 be 9c 51 84 be 7f 0e b9 3e
       -0.60644186 -0.31286073 -0.25843513 0.36143872
000120 52 23 0b 3d 1b 8b 78 be 11 95 e1 be 48 78 46 be
       0.03396923 -0.24271815 -0.4405904 -0.19381821
000130 ea 0f 38 3d e6 44 04 be ab 53 ca be 16 16 e9 3e
       0.04493705 -0.12916908 -0.3951696 0.45524663
000140 3b 97 a3 3c f6 b0 8c be 5b 23 59 be 1f 60 c2 3e
       0.019969573 -0.2747876 -0.21204893 0.3796396
000150 56 e0 b0 be 78 8e a2 3e 30 bf df be 17 94 ea 3d
       -0.34546155 0.3174932 -0.43700552 0.11454027
000160 fe 49 02 c0 21 82 bd 3e 4f fc 62 3f 78 09 81 be
       -2.0357661 0.37013343 0.8866624 -0.25202537
000170 97 32 27 bf 1d 0c e5 3e 04 5c db be d5 ab 94 3e
       -0.6531157 0.44735804 -0.4284364 0.29037347
000180 d3 18 12 bf 8d bc 65 be 68 cd 0b 3f 14 21 05 bf
       -0.5706913 -0.22435208 0.546103 -0.520036
000190 ec 08 87 3e fd e6 a8 3e 0b 59 cb bc 2b 56 2e 3d
       0.26373994 0.3298873 -0.024822732 0.042562645
0001a0 99 f1 cb 3e f6 c6 4f 3e fb b6 43 3f e7 27 87 3e
       0.39832762 0.20290741 0.7645108 0.2639763
0001b0 c0 fc 2a be 06 91 95 bf 3f 33 86 3f 70 5a 6b 3f
       -0.16697979 -1.1684883 1.0484389 0.9193487
0001c0 65 2d ad 3e 7a 0c 60 be c4 be 29 be df d2 31 3f
       0.33823696 -0.2187976 -0.16576678 0.6946239
0001d0 b4 54 ef 3e 3f 85 34 3f 9b 3f 46 3f 85 87 51 bf
       0.4674431 0.7051582 0.77440804 -0.8184741
0001e0 9f 60 58 bf fc fa c4 3e 18 e9 2a bf c4 f1 08 3f
       -0.8452243 0.38472736 -0.6676192 0.53493905
0001f0 f4 e6 14 3e 6e 38 14 3f 8f e1 08 3f ca e8 5f be
       0.14541227 0.57898605 0.53469175 -0.21866146
000200 25 44 5a 3e ca bc 1b 3f 14 6d fa 3e 03 f6 e0 bd
       0.21315058 0.60834944 0.48911345 -0.10984423
000210 6f 47 38 3f 33 c5 46 bf f8 c6 b1 bd 60 e7 48 3f
       0.71984 -0.7764465 -0.086805284 0.7847805
000220 e7 3d 21 be f8 65 10 bf fc 83 1b 3f 9d 1e 68 3e
       -0.1574627 -0.5640559 0.6074827 0.22667928
000230 15 0c 13 3f 0c d5 ec 3e ff cd 10 be a8 6d 84 3d
       0.5744031 0.46256292 -0.14141081 0.06466228
000240 0c 85 44 3e 1a cb 33 3f 02 52 7e 3b 3c aa fd 3e
       0.19191378 0.70231783 0.0038806205 0.4954394
000250 0d 9a 2a bf c3 8e 0f bf 02 aa e8 3e 9d 98 c6 3e
       -0.6664131 -0.5607721 0.45442206 0.3878831
000260 8f 64 82 be ef 06 30 3e 0b 46 a3 be cc 7c d6 be
       -0.25467345 0.17190145 -0.31889376 -0.41892087
000270 40 9f 8b 3c d6 6a f9 be 37 98 4a bf 19 ad 16 be
       0.01704371 -0.48714322 -0.7913851 -0.14714469
000280 f2 4a 5a 3f 9f 33 1b bf 8f ea f3 be b6 46 0f bd
       0.8527061 -0.6062564 -0.47639892 -0.034979545
000290 7b bb 99 be 31 ab c6 be 2c 71 cf 3d b8 b3 2d bf
       -0.3002585 -0.38802484 0.10129008 -0.67852354
0002a0 f1 3b 13 3f 55 c0 a6 be 03 27 5c bf d0 f7 50 3f
       0.5751334 -0.32568613 -0.8599703 0.8162813
0002b0 d3 9a 3f bf e0 ec 18 3f 7b f4 15 bd 9a e2 a5 bf
       -0.7484562 0.5973644 -0.036610108 -1.2959778
0002c0 8c 4a df be 7d f2 7b 3e ad e1 fd 3e eb bf 84 bd
       -0.43611562 0.2460422 0.4958624 -0.06481918
0002d0 f9 e1 40 bf 5e 53 29 3f e3 c6 49 3f 8f a7 00 bf
       -0.75344807 0.66142833 0.788191 -0.50255674
0002e0 9e 0f 76 3f ae ec 97 be 53 07 31 3f d9 67 31 3f
       0.9611758 -0.2967276 0.691518 0.69299084
0002f0 5f ca 0d bf 03 7b 5a bf 8b fa c6 be 9d e9 c2 be
       -0.5538692 -0.8534395 -0.38863024 -0.38068858
000300 75 1a 10 3e ee 4d 39 bf f2 17 ed 3e 5e dc 8f be
       0.14072593 -0.72384536 0.4630733 -0.28097814
000310 b5 7a 00 3e a6 72 2f bf b6 bc 70 bf c6 e3 59 bf
       0.12546809 -0.68534315 -0.9403795 -0.8511318
000320 34 ba bb be 24 58 7e be 9c c1 9a 3d 65 a1 97 3f
       -0.366655 -0.2483831 0.07556459 1.1846129
000330 4c a2 ae 3c 1d 1a 0a 3e 78 e2 4e 3f 51 40 fd 3e
       0.021317624 0.13486524 0.80814314 0.49463132
000340 69 4c a1 3f 61 d6 85 bf af 12 e2 3e 93 53 0b bf
       1.2601444 -1.0456048 0.4415488 -0.544244
000350 ab cf 90 be a9 e2 27 bf fb 77 5d be 5c 52 94 3e
       -0.28283438 -0.6558023 -0.216278 0.28969085
000360 2e 1b 60 3f 54 2a c2 be dd 4a 7c 3e c5 1c 84 bd
       0.8754147 -0.3792292 0.24637933 -0.064508
000370 b8 f7 34 bd ef 8e 83 3d fb 45 8a 3c 1c bd 52 bf
       -0.044181556 0.06423747 0.016879072 -0.8231981
000380 76 a7 9c 3e 18 a7 b5 3e 1f 39 d9 be 12 57 e1 3e
       0.30596513 0.35479045 -0.42426392 0.44011742
000390 5a 9d b7 3f 5f 91 98 3e 37 ca ff 3e 6e 39 ee be
       1.4344895 0.2979841 0.49958965 -0.4652819
0003a0 90 4e 53 3f 07 71 e1 3e f7 aa 40 3f bc ee b7 3d
       0.8254175 0.44031546 0.7526087 0.08981082
0003b0 6b a4 73 3e 8b 66 1f bf 44 bd 9e 3f b8 0f 38 3e
       0.23793189 -0.62265843 1.2401509 0.17974746
0003c0 56 40 8f bd d2 0e bb be 9c eb 91 3e b4 0e d2 3d
       -0.06994693 -0.36534745 0.28500068 0.10256711
0003d0 fc 17 3c 3e b8 61 89 3e 05 25 44 bd fc f3 1f 3f
       0.18368524 0.26832366 -0.047886867 0.62481666
0003e0 b6 5e 4d bf 33 f3 07 3f f2 d0 eb 3d ed ca 7a 3f
       -0.8022264 0.5310547 0.115144625 0.9796589
0003f0 ca f9 1e 3f 12 11 88 be 72 03 b2 be 76 d7 a9 be
       0.620999 -0.26575524 -0.34768254 -0.33172196

rnn_to_logits.bias f4 [36]
000000 3f 0b 16 bf 24 29 2b bf 40 40 ae bf c6 99 ff 3e
       -0.5861091 -0.6685965 -1.3613358 0.49922007
000010 fd 17 d8 be be 6b d2 be 02 18 c2 3d a9 bf 84 bc
       -0.42205802 -0.41097826 0.094772354 -0.016204672
000020 98 5a 94 3e ad 9b 80 bf 89 6e c6 be 0a a7 43 3f
       0.28975368 -1.0047508 -0.38756207 0.76426756
000030 f0 af 2e 3e ce 24 34 3f 4d af 03 3f 12 ff 1a 3e
       0.17059302 0.7036866 0.5143936 0.15136364
000040 e5 ce a0 3d 4d 4d 66 3e 31 d3 13 be 3e c5 55 3e
       0.07851962 0.22490425 -0.14436032 0.20876023
000050 24 d7 e3 3e 28 f6 65 3e 22 8e be 3e 4d 82 1b bf
       0.44500077 0.22457182 0.37217814 -0.607457
000060 bd c6 b4 be 8a 8e 55 3d 4a 9b af 3e ec b7 02 bf
       -0.35307875 0.05213789 0.34298164 -0.5106189
000070 f5 f0 81 bf 3b 4b 0d bf 5e 56 78 3c fc 38 d1 be
       -1.0151659 -0.5519292 0.01515731 -0.40863788
000080 f9 74 19 bf c6 1e 15 3f 00 8f dc 3e d3 98 02 bf
       -0.5994411 0.5825008 0.4307785 -0.5101444
